…
t_parallel_size': 1, 'pp': 1, 'pp_engine': '1f1b', 'recompute_layer': False, 'tp': 1, 'tp_linear_async_communication': True, 'tp_mode': 'REDUCE_SCATTER', 'tp_recompute_allgather': True}, 'profiler': None, 'tokenizer': {'tokenizer_max_length': None, 'tokenizer_name_or_path': 'HuggingFaceTB/cosmo2-tokenizer', 'tokenizer_revision': None}, 'tokens': {'batch_accumulation_per_replica': 1, 'limit_test_batches': 0, 'limit_val_batches': 0, 'micro_batch_size': 8, 'sequence_length': 512, 'train_steps': 2000000, 'val_check_interval': 1000}}
2025-03-09 06:37:20,135 - INFO - DeepSeekV3Model(
  (embed_tokens): Embedding(49152, 576)
  (rotary_emb): RotaryPositionalEmbedding()
  (layers): ModuleList(
    (0-29): 30 x LlamaDecoderLayer(
      (self_attn): MultiHeadLatentAttention(
        (kv_proj_D): Linear(in_features=576, out_features=144, bias=False)
        (q_proj_D): Linear(in_features=576, out_features=144, bias=False)
        (k_proj_U): Linear(in_features=144, out_features=288, bias=False)
        (v_proj_U): Linear(in_features=144, out_features=576, bias=False)
        (q_proj_U): Linear(in_features=144, out_features=288, bias=False)
        (rope_k): Linear(in_features=576, out_features=288, bias=False)
        (rope_q): Linear(in_features=144, out_features=288, bias=False)
        (o_proj): Linear(in_features=576, out_features=576, bias=False)
        (rotary_emb): RotaryPositionalEmbedding()
      )
      (input_layernorm): LlamaRMSNorm()
      (mlp): LlamaMLP(
        (moe): DeepSeekMOE(
          (shared_experts): ModuleList(
            (0): DeepSeekExpertLayer(
              (gate_proj): Linear(in_features=576, out_features=1536, bias=False)
              (up_proj): Linear(in_features=576, out_features=1536, bias=False)
              (down_proj): Linear(in_features=1536, out_features=576, bias=False)
              (act_fn): SiLU()
            )
          )
          (routed_experts): ModuleList(
            (0-2): 3 x DeepSeekExpertLayer(
              (gate_proj): Linear(in_features=576, out_features=1536, bias=False)
              (up_proj): Linear(in_features=576, out_features=1536, bias=False)
              (down_proj): Linear(in_features=1536, out_features=576, bias=False)
              (act_fn): SiLU()
            )
          )
          (routing_fn): Linear(in_features=576, out_features=3, bias=False)
        )
      )
      (post_attention_layernorm): LlamaRMSNorm()
    )
  )
  (norm): LlamaRMSNorm()
  (lm_head): Linear(in_features=576, out_features=49152, bias=False)
)
2025-03-09 06:37:20,138 - INFO - ++++++++++++++++++++++++++++++++++++++++++++++++++++++++++++
2025-03-09 06:37:20,140 - INFO - Total parameters: 373030938
2025-03-09 06:37:20,292 - INFO - tokenizer parallelism set to false
2025-03-09 06:37:20,292 - INFO - dataset loading config set
2025-03-09 06:37:21,042 - INFO - dataset loaded
2025-03-09 06:37:21,043 - INFO - Training with learning rate schedule:
…
